{"class_name": "Sequential", "keras_version": "2.0.8", "config": [{"class_name": "Dropout", "config": {"name": "dropout_4", "dtype": "float32", "trainable": true, "rate": 0.1, "seed": null, "batch_input_shape": [null, 36], "noise_shape": null}}, {"class_name": "Dense", "config": {"kernel_initializer": {"class_name": "RandomNormal", "config": {"seed": null, "stddev": 0.05, "mean": 0.0}}, "name": "dense_5", "kernel_constraint": null, "bias_regularizer": null, "bias_constraint": null, "dtype": "float32", "activation": "relu", "trainable": true, "kernel_regularizer": null, "bias_initializer": {"class_name": "Zeros", "config": {}}, "units": 100, "batch_input_shape": [null, 36], "use_bias": true, "activity_regularizer": null}}, {"class_name": "Dropout", "config": {"name": "dropout_5", "dtype": "float32", "trainable": true, "rate": 0.1, "seed": null, "batch_input_shape": [null, 36], "noise_shape": null}}, {"class_name": "Dense", "config": {"kernel_initializer": {"class_name": "RandomNormal", "config": {"seed": null, "stddev": 0.05, "mean": 0.0}}, "name": "dense_6", "kernel_constraint": null, "bias_regularizer": null, "bias_constraint": null, "dtype": "float32", "activation": "relu", "trainable": true, "kernel_regularizer": null, "bias_initializer": {"class_name": "Zeros", "config": {}}, "units": 100, "batch_input_shape": [null, 36], "use_bias": true, "activity_regularizer": null}}, {"class_name": "Dropout", "config": {"name": "dropout_6", "dtype": "float32", "trainable": true, "rate": 0.1, "seed": null, "batch_input_shape": [null, 36], "noise_shape": null}}, {"class_name": "Dense", "config": {"kernel_initializer": {"class_name": "RandomNormal", "config": {"seed": null, "stddev": 0.05, "mean": 0.0}}, "name": "dense_7", "kernel_constraint": null, "bias_regularizer": null, "bias_constraint": null, "dtype": "float32", "activation": "relu", "trainable": true, "kernel_regularizer": null, "bias_initializer": {"class_name": "Zeros", "config": {}}, "units": 100, "batch_input_shape": [null, 36], "use_bias": true, "activity_regularizer": null}}, {"class_name": "Dense", "config": {"kernel_initializer": {"class_name": "RandomNormal", "config": {"seed": null, "stddev": 0.05, "mean": 0.0}}, "name": "dense_8", "kernel_constraint": null, "bias_regularizer": null, "bias_constraint": null, "activation": "softmax", "trainable": true, "kernel_regularizer": null, "bias_initializer": {"class_name": "Zeros", "config": {}}, "units": 2, "use_bias": true, "activity_regularizer": null}}], "backend": "theano"}